notebooks/encoder_best.pt (torch, 101642 bytes, 15 tensors)

delta_gnn.convs.0.bias f4 [128]
00000000: 6d3d da3a 599d 91ba 9a5a d13c 9274 a9bc
00000010: 6afc 7abb 8aa2 35bc 76f2 443c 7eb2 65bc
00000020: c655 42ba a265 fdbb de79 36b8 f03b db3b
00000030: 0e04 d33b 2af9 5cbc 5e48 a83c cc58 df3a
00000040: 8cb9 9cbb 86e0 a93b a6d7 95bc daaa 373c
00000050: d8e5 c73c 159f 883c 11e0 6f3b 392c 363c
00000060: 9b32 433c a574 963c 4c38 073d 52e4 a9bc
00000070: b4e5 553c 3a5b d03c a3b1 11bc 2e5c 063b
00000080: 0df1 0bbb ef3c b53c 8730 303c a41a 623c
00000090: 5d6c 11bc 9978 fa3c 32f7 083c 688b d2bc
000000a0: 377e 003d 0749 a7bc 3a23 9bbb c51d e7bb
000000b0: f2fc 2e3a 3d56 2bbc 2b55 43bc 3ff2 c1bc
000000c0: 1333 cbbb c16c 35bc 4a95 753c 4043 57bc
000000d0: f4fb 8cbc cd9a a63c f0a0 8a3c aed2 343c
000000e0: 8ae4 a03b ed62 373c aa6e 653c 1ab1 cdbb
000000f0: cc62 29bc 4471 02bc e31a 703c 4d21 8dbc
00000100: 80c5 3ebc 8f1b 90bb ff2c 86bc b743 25bc
00000110: 2fe3 59bc 029b ea3b d302 253c 2f3d 77bb
00000120: 970c 2cbb d41d c13b db6d c1bc 5fbf 163c
00000130: f388 d63b f285 0d3c 6ef6 f03c 3f5c 47bb
00000140: ed71 94bc 4eb0 1638 3d96 33bc 7201 bf3c
00000150: 1ae5 ddbb dba4 f1bc 5121 ff3b 9001 3f3c
00000160: b77b 80bc 6633 5e3b aed4 a03c 9a92 e0bb
00000170: 4ac6 48bb a444 81bc 00d8 a3bc 8b9c a9bb
00000180: fad4 8fbc 2b8f 0b3c 1220 9aba c96f ccba
00000190: 9a9a 403c 87e3 86bb 8bd9 03bd cf82 283c
000001a0: a315 9b3c 49bc 71bc b825 1cbc 64b6 c13b
000001b0: ab41 37bc c827 77bc 06f0 c6bc cac5 9f3a
000001c0: d538 063d 510b 7cbc f381 1dbc 1283 88bc
000001d0: 4932 d43a fdb7 283c f083 0bb9 31b8 e23c
000001e0: d62a a438 e505 b6bc 114c 2bbc f305 203c
000001f0: 05ef 16bc e42a 553c 81e4 743c 3878 8b3b
0.0016650386 -0.0011109515 0.025555898 -0.020685468 -0.0038297423 -0.011086116 0.012020698 -0.014019607
-0.0007413294 -0.007733063 -4.350568e-05 0.0066904947 0.0064396923 -0.01348714 0.02054232 0.0017040013
-0.004782861 0.005184236 -0.018291306 0.011210168 0.02440159 0.016677419 0.003660206 0.011118942
0.011913921 0.018366167 0.033012673 -0.020738754 0.013055254 0.025434125 -0.00889245 0.002050172
-0.0021353394 0.022123782 0.010753757 0.013800297 -0.0088759335 0.030575084 0.008359717 -0.02570124
0.031370368 -0.020420564 -0.004734424 -0.0070531094 0.0006675265 -0.0104575725 -0.011922161 -0.023675082
-0.006201157 -0.011073292 0.014989207 -0.013138592 -0.017209984 0.020337487 0.016922444 0.011036558
0.0049100565 0.011193019 0.014003435 -0.0062772157 -0.010338496 -0.007961575 0.014654848 -0.017227793
-0.011643767 -0.0043978165 -0.016378878 -0.010086945 -0.013298794 0.0071595917 0.010071474 -0.0037725677
-0.0026252621 0.0058934484 -0.023611953 0.0092009 0.0065470873 0.008637892 0.029414382 -0.0030419973
-0.01812073 3.5926983e-05 -0.010961113 0.023316119 -0.006771696 -0.029497555 0.007785954 0.011658087
-0.015683992 0.0033905148 0.019632664 -0.006853414 -0.0030635768 -0.0157798 -0.020000458 -0.005176132
-0.01755761 0.008518021 -0.0011758825 -0.0015597279 0.01175561 -0.004116479 -0.032189887 0.010285093
0.018931216 -0.014754363 -0.009530477 0.0059116352 -0.01118509 -0.015085168 -0.024284374 0.0012189683
0.032769043 -0.015383557 -0.009613502 -0.016664062 0.0016189303 0.0102977725 -0.00013305224 0.02767572
7.828108e-05 -0.022219608 -0.010455147 0.009767043 -0.00921226 0.013010714 0.014947058 0.0042562746

delta_gnn.convs.0.lin.weight f4 [128, 4]
00000000: 90ae 043d a413 9dbd d3be eabb d5ba 4abe
00000010: 11f3 013d 77b9 fa3c 9a9b 58be 6f38 923d
00000020: 253e 2b3e 0edd 3c3e 3200 8cbe fd47 f3bc
00000030: 9ef5 eb3c 5c5b 9fbd b49d 9b3d 5917 a1be
00000040: f30c 18be d3fc 79be debc 11bb 7d7f 423e
00000050: 6637 8bbe 5870 59bd 5a47 7d3e f73e d6bc
00000060: 5469 19be 3076 103e 2ac3 283e f4ca 9f3d
00000070: 2ff2 89ba 53e5 48be 2cdc 8a3e 96ba 8dbe
00000080: 3494 963e 92ba 85be 9d33 153e 2f78 653e
00000090: 37cf 6bbe 062f 353c f0b7 6abe f74a de3d
000000a0: fc02 97be 71cc 3d3d 55bd 82be 6796 08bd
000000b0: 05f4 98be 97be 16be bfe3 e03d c1a5 493e
000000c0: e009 49be 96b3 343e 89ff 7a3e 9633 4d3d
000000d0: ce1b 08bd 478a 1f3d a713 663e 01ec 8d3e
000000e0: c159 07be 453c 9e3e 2be0 dcbd c0f1 34bd
000000f0: f7c4 f83d 6fe0 3a3e f37b 6b3e ab1c b93d
00000100: 136f 44be 6b7a a4bc afe2 93be eb88 bbbd
00000110: 4275 96be 4de9 83be 8dcf 41bd 52b8 29bd
00000120: 6dfd 2f3e 2baf 3dbe cbd0 45be d037 cc3c
00000130: dec6 98be 0245 36be 7745 7d3e b4df 85be
00000140: bb33 383e a84c 463e 36e8 cabd 2caa 44bd
00000150: 6c04 d73d f846 25bd eae4 bbbd 011b 173d
00000160: 1fe1 08be 0070 41be 5fca 853e 2082 563e
00000170: efc4 57be 5b5e 43be 2f42 0fbc 1ab2 733e
00000180: 5e65 6ebe 61ab f7bd 9809 13bd f4da 3f3e
00000190: 4079 473e 74ab 93be af1e eabd 44b5 963e
000001a0: d06a 8ebe 7152 9cbe b993 423e c949 13be
000001b0: fa23 ac3d 2875 5c3d a45d 4fbe 4c05 f23d
000001c0: 4249 9fbe 49db c33c 4c2f 8cbe ed44 ccbd
000001d0: 8514 353e 638d 293e 30ea 5a3d 6386 25be
000001e0: 503e a03e d29e ca3c f390 7f3e 2a5b f23d
000001f0: c048 5c3c b295 70be 0939 cfbd 4d56 09be
00000200: e821 953e 94d6 823e b874 813e b44e c93c
00000210: c629 84be 2496 e83d 2622 83be 2364 6cbe
00000220: 4166 d43c cb94 e03c 1bdb 0f3e 39c6 893e
00000230: 4c5c 8e3e 9432 62be 778c 0a3e 54d5 8c3e
00000240: 89a5 4b3e dc73 97be 4825 93be e0f0 543d
00000250: 1768 4ebe bba5 8cbe 5fd5 acbd dd18 52be
00000260: db90 94be a329 9abe ce7f b0bd 77da 9d3e
00000270: fe56 42be 8b36 453e 9fa7 983e be3f 85be
00000280: d8a8 4abe fc52 81be 32fe 70be 3a55 32be
00000290: 24b6 0cbe a82f 8dbe 7145 52be 36f4 323e
000002a0: 390f c73d 971d e0bb 4c33 c43d 1b3b 8bbe
000002b0: 9989 9a3e f0be 22be 3ea3 803e 48c3 583d
000002c0: 0085 523e e3e1 8abe 4eef b23d 0cdd ecbd
000002d0: d814 ea3d f452 aebc edf6 893e 00a9 53be
000002e0: 4d68 9e3e dc78 8fbd 02d8 033e 4a8f 813e
000002f0: bc01 573d 8b7d 3abe 2316 5dbd 8123 a0bd
00000300: 89d6 4d3e 4822 963e a1f7 40bc d691 0dbd
00000310: c1b5 8b3e 810d adbd 313c a03d f069 98be
00000320: abe4 86bd 83ea 90be dccf f9bc 1110 85bd
00000330: bfca 32bd 3b44 5d3c 3858 763e 196c 5d3e
00000340: 81cf 673e 6cd2 47be 4ec1 63bd dafd 86be
00000350: 82d9 103e 8570 8d3d d591 353e a4bc 8a3d
00000360: 421d 94be 5889 1d3d 0475 8cbe 7a7a 26bd
00000370: c363 6c3e 87ae 5d3c 8d29 1d3e 718b 873d
00000380: e72f 8a3e 80ac 3bbe cbb9 a4bd 16b1 86be
00000390: a3db a2be 28a2 ba3d 55fa 20be 10a5 2d3e
000003a0: 5f00 83be df36 a03e 3c9f 663b 34a3 a93d
000003b0: 4103 57be 4c55 a2bc e438 2e3e 255e 223e
000003c0: b813 7b3e a939 92be 7f53 623d 6cce 083e
000003d0: df50 81bd 03ef 7d3d 2086 dbbd be77 7a3e
000003e0: 52e2 5cbe 64c9 a1be 75b4 3c3e 1790 ab3d
000003f0: d033 a0bd 4b7a 68be 03fd 113e 677d b53d
0.03239304 -0.07669762 -0.0071638613 -0.19797833 0.031725947 0.030606015 -0.21153107 0.0713967
0.16722925 0.184437 -0.273439 -0.029697413 0.028803643 -0.07781097 0.07598439 -0.31463125
-0.1484869 -0.24412851 -0.0022237818 0.18993945 -0.27190703 -0.053085655 0.2473425 -0.02615307
-0.14981586 0.14107585 0.16480699 0.07802382 -0.0010524447 -0.1961873 0.27121103 -0.27681416
0.29409945 -0.26118904 0.1457047 0.22409128 -0.23028265 0.011058575 -0.22921729 0.10854142
-0.29494464 0.04633755 -0.25535074 -0.03334656 -0.29873672 -0.14721142 0.10980939 0.19692136
-0.19632673 0.17646632 0.24511541 0.050098024 -0.03322964 0.03895023 0.22468434 0.2771912
-0.13217832 0.30905357 -0.10784944 -0.044175863 0.12146943 0.18249677 0.22996502 0.09038671
-0.19182996 -0.020077905 -0.28883883 -0.091569744 -0.29386336 -0.25763932 -0.047317076 -0.041435547
0.17186518 -0.18523853 -0.1931793 0.024928957 -0.29839224 -0.17799762 0.2473353 -0.26147234
0.17988484 0.1936518 -0.09907572 -0.04801385 0.1049889 -0.040350884 -0.09174521 0.036890987
-0.13367127 -0.18890381 0.2613096 0.20948076 -0.21071218 -0.19078963 -0.008743807 0.23798409
-0.23280856 -0.12093235 -0.03589782 0.18735868 0.19479847 -0.28841746 -0.11431634 0.2943517
-0.27815866 -0.30531648 0.19001664 -0.14383616 0.084052995 0.053822666 -0.20250565 0.118174165
-0.3111058 0.023908274 -0.27379835 -0.09974084 0.17683609 0.16557841 0.053445995 -0.16164546
0.3129754 0.024733935 0.24957637 0.118337944 0.013445079 -0.23494604 -0.101183005 -0.13411827
0.2912743 0.25554335 0.25284362 0.024573661 -0.2581312 0.11356762 -0.2561199 -0.23085074
0.025927665 0.0274147 0.14048426 0.26909044 0.27804792 -0.22089607 0.13530146 0.27506506
0.19887365 -0.2958058 -0.2873938 0.05198753 -0.20156895 -0.27470192 -0.08439135 -0.20517297
-0.29016766 -0.3010989 -0.08618127 0.30830738 -0.18978497 0.19259088 0.29815385 -0.26025194
-0.19790971 -0.25258625 -0.23534468 -0.17415324 -0.13741356 -0.2757542 -0.20534302 0.17475972
0.097197 -0.006839465 0.095800966 -0.2719353 0.30183104 -0.1589315 0.25124544 0.05292061
0.20558548 -0.27125463 0.0873705 -0.11565599 0.11429757 -0.02127979 0.26946202 -0.20669937
0.3093895 -0.07005474 0.12875369 0.25304633 0.05249189 -0.18211953 -0.05397619 -0.07819272
0.2010137 0.2932303 -0.011777789 -0.034562908 0.27287105 -0.08449841 0.078239806 -0.29768324
-0.06586584 -0.28303918 -0.030494623 -0.06497205 -0.043650385 0.013505037 0.2405709 0.21623267
0.2263775 -0.19513863 -0.05560427 -0.26365548 0.14145473 0.06906227 0.17731412 0.067742616
-0.28928572 0.03846106 -0.27433026 -0.040644147 0.23084931 0.01353038 0.15347882 0.06618393
0.26989672 -0.18327522 -0.0804325 -0.2630698 -0.31808195 0.0911296 -0.15720494 0.16957498
-0.2558622 0.31291863 0.0035190126 0.08283082 -0.20997335 -0.019816063 0.1701389 0.15856226
0.24519241 -0.28559616 0.05525541 0.13359994 -0.06314253 0.061995517 -0.10718942 0.2445974
-0.2157071 -0.3159896 0.18428214 0.08377092 -0.078223825 -0.22702901 0.14256673 0.08861809

delta_gnn.convs.1.bias f4 [64]
00000000: 5894 f73c 9b79 663c 029a e2bb 904c 80bb
00000010: f969 4d3c dc0b 2abc 617d 523b 747b 6f3a
00000020: 7049 2abc ed86 19bc 58f2 713c 7f9d 1dbc
00000030: 0000 0000 e4c8 3a3c edec a93c c781 0ebb
00000040: 858b d43b 5e8f 92bb b293 58bc 5c25 52bb
00000050: fded 49bc 82f5 8dbc 6d50 d93b b454 36bc
00000060: 2157 71bc f01f d6bb 4079 ccbb 07bd 443c
00000070: 1c06 ca3c cd43 ce3c 02a9 e93b 4c57 62bc
00000080: 8583 05bb 104d 0b3c 531e 1fbc 4861 34bb
00000090: 230d 603c 2982 03bc 7267 cdbb 86e3 4f3c
000000a0: 699f a8bc c556 7bbc 095f 15bc f5b8 9cbc
000000b0: 12ec 9bbb 0635 ae3b bc59 9c3c c98c a6bb
000000c0: 5a14 113c 09c6 adbc b795 0ebc a309 69bc
000000d0: 14a8 da3c 48f0 14bc 035c 8e3c cb4a 863c
000000e0: 1020 af3c f627 a8bc 0000 0000 29c3 963b
000000f0: 682a c0bb c44d 34bc 54e6 99bb c152 443b
0.030222103 0.014067079 -0.006915332 -0.003915377 0.012537473 -0.010378804 0.0032118189 0.00091355224
-0.010393485 -0.009370548 0.014767252 -0.0096200695 0.0 0.011400435 0.020742858 -0.0021744834
0.0064863586 -0.004472657 -0.013218807 -0.0032065725 -0.012324807 -0.017328981 0.006631902 -0.011128593
-0.014730246 -0.006534569 -0.00624004 0.012007958 0.024661116 0.025178814 0.007130743 -0.0138147585
-0.0020372581 0.00850226 -0.00971182 -0.0027523804 0.013675007 -0.008026638 -0.006268435 0.012688523
-0.020583825 -0.015340512 -0.009116896 -0.019131163 -0.0047583664 0.0053163795 0.019085757 -0.005082701
0.00885495 -0.021212595 -0.008702687 -0.014223489 0.026691474 -0.009090491 0.017377859 0.016393086
0.021377593 -0.020526867 0.0 0.0046009016 -0.00586443 -0.011004869 -0.0046966467 0.0029956552

delta_gnn.convs.1.lin.weight f4 [64, 128]
00000000: 4af8 dcbd 05fd 2e3e 8901 333e e23f 90bc
00000010: 67a2 43be 9a78 50be 1f2b 813a ce5c 3dbe
00000020: aa2a 1f3e 394b a1bd cf7b 193e b19d 423e
00000030: 714e ed3d d25d 493e e263 59bc 37ee 85bd
00000040: 0ab0 babc 7fbc 6fbe 85b6 55be 3807 693d
00000050: aa86 f53d 0cfb 343e 6156 a33d be0d 5bbe
00000060: 7e68 75be 0aaf 53be e272 583d 0de5 5bbe
00000070: c85d 86be 980e 4a3d f935 a33d 7f98 b5bd
00000080: 68fb 783e e0e4 153e 3bda fbbd db63 a03d
00000090: e6b2 533e 84eb 833e 6f21 0bbe ce19 b03d
000000a0: 034b 593e 87d0 84bd 3bbd 733e cbfb 1d3e
000000b0: f44b 6c3e 1f9b 5bbe 4709 733d d140 09be
000000c0: 93ba 153e 1ef3 673e c24b 58bd 9684 e3bc
000000d0: 8f09 14be d555 803e 8fd5 203e c61e df3d
000000e0: d688 cc3d c4c4 73be b25a 103e cf6c 3ebe
000000f0: 1a19 63bc ef5c 7dbd 77ca edbd 6126 57be
00000100: fcd8 5bbe 3353 eabd 422d 4bbe fc3d 28be
00000110: 4058 80be 87f7 613e 2f66 81be f8d5 693e
00000120: 8ca3 ea3d 61ec 2e3c 5f10 6d3e e4bd 94bd
00000130: dd0e 533d 5818 393c a095 0e3e 2fb5 bb3b
00000140: 4216 723d 3edf 183e 510e 173e 16ae 803e
00000150: 1248 36bd f77b f8bc 0c57 483e 2314 563e
00000160: f467 323a 069e 963d c259 e0bc ab5a 05be
00000170: d1be e43d 753e 1ebe 8fca 07bc 13d1 5c3e
00000180: 9e0c a33d 0bc1 433d 784d 13be 2ce0 68bd
00000190: 2363 cf3d bfa5 8dbd 0a4b cb3d e1f1 6ebe
000001a0: 46bc 283b 7ab5 fa3d 416d d13d 473a 743e
000001b0: 3dc8 693e 6be0 2cbe d684 d93d 255f ccbd
000001c0: 69d2 26be 34a3 31be 44da 46be 5fb4 4ebd
000001d0: bf17 583c da43 6d3e 3d6c 85bd 4d7a 8b3d
000001e0: d797 a03d 2900 a93c 4ab1 8d3d 307a 4abc
000001f0: a42e 103e 96ea 41be c5cf 513e d2d9 8cbd
00000200: 3b60 023e bfba 193e 15c0 ebbc 9e72 efbd
00000210: 85e7 56be 5e34 46be 2682 33bd 2503 a43d
00000220: 94e7 52be 6075 4fbe 7e31 2e3e 75df 93bb
00000230: 3bb1 84bc bb66 54be de27 26be 8e45 81bd
00000240: 50a4 693d b903 6c3e cb2d 55be 2921 03be
00000250: bc08 13be 956b 803d 3eca 203e 55e4 7c3e
00000260: cbdc 00be 645c e03d 5af4 5bbb 3964 be3d
00000270: bc0e 84bc 906a 2b3e 8d4d 82bc 5eeb 17be
00000280: 9c39 2f3e c945 24be 2cec e1bc a1bc 58be
00000290: 137a 01be 4127 a83d 88d0 cbbd 813b 613e
000002a0: cc71 41be 8421 863e ceee 963d 01e3 d5bd
000002b0: 3156 183e eca0 33be b5d3 633e e35b 643e
000002c0: dd14 66be ca80 c73d 4b96 663e a4f3 333e
000002d0: edde 29bd 9a0d 0fbe 7fbb 893e b95e 093e
000002e0: ce08 6dbe 3718 ed3d f711 0e3e 6851 91bd
000002f0: 3269 5b3e 4698 073e af8d 103e 7245 6fbe
00000300: b472 4c3e 33e5 2bbe 8d08 a9bd 36ff afbd
00000310: 1f45 f83d 3e57 4fbe c5bf 823e 6040 77bd
00000320: 2688 45be 077a 183e b69d 223e 938f 52bd
00000330: 575e b03d 7948 09be 99ca 3bbe b5cb 20be
00000340: f1c0 f63c 6b84 4dbe 6343 cbbd c63e 5bbc
00000350: f96f bd3d 4c0c 2cbd 7814 57be 48ed 60bd
00000360: 768b fb3d 2c35 773e 84da 073e da19 d73c
00000370: 50b0 453e 2097 803c 8b12 5e3e a748 2dbe
00000380: 364a 0d3e 3dcb 3dbc ef8d 15be 2904 08bd
00000390: c655 653e c442 353e 8e6c a6bd dca9 803d
000003a0: 97d1 3bbe 5f8b 09be d49a 6e3e aade b1bc
000003b0: 1b65 fd3c cb1e 8f3d c1a4 45be 3beb 703e
000003c0: c903 1d3e 5803 f33d 4432 2e3e c959 dbbd
000003d0: 5baa 98bc b9f1 6ebd 0c65 333d ecd2 6b3e
000003e0: 3652 563e 6f10 1abc 5dbd 9a3b 436d 3a3e
000003f0: f40f c73d 27ef ab3d f7c5 fbbc 7151 fbbc
-0.10789545 0.17088707 0.17481054 -0.017608587 -0.1910492 -0.20358506 0.000985477 -0.18492433
0.15543619 -0.07875676 0.14988635 0.19005467 0.11587227 0.19664696 -0.013268443 -0.065395765
-0.02278902 -0.2341175 -0.20870407 0.05689165 0.11988576 0.17673892 0.0797546 -0.21391961
-0.23965642 -0.20672241 0.052843936 -0.21474095 -0.26243424 0.049330324 0.07969279 -0.08866977
0.24314654 0.1463809 -0.122974835 0.07831546 0.20673713 0.25765622 -0.13586973 0.08598672
0.21220021 -0.06485086 0.23802654 0.15428083 0.23075849 -0.21445893 0.05933502 -0.13403632
0.14621954 0.22651336 -0.052806623 -0.027773183 -0.14456771 0.25065485 0.15706466 0.108945414
0.09987037 -0.23805529 0.14097098 -0.18596195 -0.013860965 -0.061856207 -0.11610883 -0.21010734
-0.21469492 -0.1144165 -0.19841483 -0.16429895 -0.2506733 0.2206708 -0.25273272 0.22835529
0.11456975 0.010676474 0.23150776 -0.07262781 0.051527847 0.011297308 0.13924265 0.005728386
0.059103258 0.1492891 0.14751555 0.25132817 -0.044502325 -0.030332549 0.19564456 0.20906119
0.00068056514 0.07354359 -0.02738655 -0.13022868 0.11169208 -0.15453513 -0.00828804 0.2156413
0.07961391 0.047791522 -0.1438502 -0.056854412 0.10126331 -0.06916379 0.09926422 -0.23334457
0.0025746985 0.12241645 0.10225917 0.23850356 0.22830291 -0.16882484 0.106210396 -0.09979085
-0.16291203 -0.17347413 -0.19419199 -0.050464984 0.013189255 0.23170415 -0.065147854 0.068104364
0.07841461 0.02062996 0.06918581 -0.012358233 0.14080292 -0.18937144 0.20489414 -0.068774834
0.12732022 0.15012644 -0.028778115 -0.11691783 -0.20986755 -0.19355914 -0.04382529 0.08008412
-0.20596153 -0.20259619 0.17011067 -0.004512722 -0.016197791 -0.20742314 -0.16226146 -0.06312095
0.057041466 0.23048295 -0.2081825 -0.12805618 -0.143588 0.0627052 0.1570215 0.24696477
-0.12584226 0.10955122 -0.0033562393 0.0929646 -0.016120307 0.16739869 -0.01590612 -0.14835879
0.1711182 -0.16042246 -0.027578436 -0.21165706 -0.12644224 0.08210612 -0.099518836 0.21995355
-0.18891066 0.26197445 0.07369767 -0.10443688 0.1487663 -0.17541856 0.22248729 0.22300677
-0.22468896 0.097413614 0.2251827 0.1757341 -0.041472364 -0.13970032 0.2690086 0.1341504
-0.2314789 0.11576884 0.1387404 -0.07095605 0.21426848 0.13241681 0.14116548 -0.23366335
0.19965631 -0.16786651 -0.08253584 -0.085935995 0.12122559 -0.20248124 0.25536934 -0.060364127
-0.19290218 0.148903 0.15880474 -0.051406454 0.08611744 -0.13406552 -0.18339004 -0.15702708
0.030121299 -0.20070045 -0.09924962 -0.013381666 0.09249873 -0.042003915 -0.21003902 -0.05491379
0.122824594 0.24141377 0.13266951 0.026257444 0.19305539 0.015697062 0.21686761 -0.16922246
0.1379784 -0.0115841 -0.14604925 -0.033207092 0.22396001 0.1770125 -0.08126174 0.06282398
-0.18341671 -0.13432072 0.2330125 -0.02171262 0.030932 0.06988295 -0.1930113 0.23527233
0.15333475 0.11865872 0.17011362 -0.107104845 -0.01863592 -0.058335993 0.043797538 0.23029679
0.20929798 -0.009403332 0.004722281 0.18205743 0.0971984 0.08395224 -0.030734045 -0.030678483

delta_gnn.mlp.0.weight f4 [64, 64]
00000000: 5283 7cbe 1d75 8abe bec4 083e 4061 5bbe
00000010: 92e0 93bd 9170 9bbe a3f9 f3bc 9c50 86be
00000020: 2b6f 3a3e b531 093d 0977 4d3d 0039 2dbe
00000030: 4408 d43c 1e75 383e b64c 033e 9210 1b3d
00000040: f4d5 8a3e ec85 3fbe 1dd9 d63c e84d b73a
00000050: 7f22 61be 7635 46be 880d 9dbd 031e 42bc
00000060: 16ef a33d 139c 543e 5ce4 6c3d 28d4 f23d
00000070: 38d4 76be 2f8d 973e fbf9 163e 908f f7bd
00000080: 714d 24be ab7c 2cbe 0346 08be d5b7 98be
00000090: 45b1 88bd 49c7 793d 2f08 abbd 7f66 a43c
000000a0: b473 52be f630 153e d6ba 613d e061 843d
000000b0: 27b4 77be cff5 2f3c 0aa4 09be 3356 253e
000000c0: fbb5 dd3d 98ff 603e f0e7 42bd b638 9ebe
000000d0: fa9e 2ebe 824d c7bd b238 80be b164 083e
000000e0: 485b b93d 862c 883c cc63 fc3d ece7 0c3e
000000f0: 46de 13be 9860 813e ff69 16be 7a6a 5cbe
00000100: f6f8 11bd 5f92 29be 064b 843e 4eb8 f73d
00000110: e81b 37be a088 6b3b e52e 963e be71 213d
00000120: fb50 70be a86d 4fbe 3865 37be d0de 55be
00000130: a5cd a5bd 95ab 98be bf3d 6e3e e7b6 68be
00000140: 49cc 153d f07d 933e d72a 4b3d 8963 ba3d
00000150: 1bc7 153e fac0 4ebd 7f21 e4bd 4d3e 2c3e
00000160: b7b4 4e3e 7126 b13a 97a8 8e3e b402 81be
00000170: ffdc 363d cc89 1f3e 8cd3 88be e1da 96be
00000180: fcb5 13bd 00b1 52bd d6fe 913e b4f8 80be
00000190: 57b9 f53d 5ffd 27be 11a6 813e 4efa 263e
000001a0: 42b8 123e ae3b 36be 7e91 223e e5fc 5ebe
000001b0: 698e 91bb 9af2 75be 2827 c5bd ae70 f6bd
000001c0: 40d3 b6bd ad98 12be 0b72 f3bd d65f 33be
000001d0: 158e 5dbe e9fb 833e 3bed 84be a040 0dbe
000001e0: 205b 0fbc 00ed 683e 9dee 40be df70 5a3e
000001f0: 9f60 98be 4e0d 633e bedd f43c f52d 90bd
00000200: 8ff6 5a3d a5d6 9e3c de9b fcbd 7101 5f3e
00000210: a7ac 90be 9480 9fbb 6e1d 2e3e 6d5b c83d
00000220: 4285 96be 7573 5ebe c673 acbd e6db 7abe
00000230: 0ad8 2abe dda4 673e 2f52 913e 96fb aebc
00000240: f6f3 50be 5480 9dbb 6495 473e 5c28 383d
00000250: 8183 d4bc e30f 87be 24ee 2b3e 5a87 1dbe
00000260: 403e 56bd df1a cbba 38af 8f3e 3791 2cbe
00000270: 0e77 e4bd 4632 ed3b 57b7 e8bd 550d 70be
00000280: 3da3 963e b633 ab3d a10d 90be 6ffc 123e
00000290: c200 803e 5dad 193e e7b4 273e 9cc4 e93d
000002a0: b665 92be a024 8cbd 4a2f a5bc 4cd7 24bd
000002b0: ae33 b53d 1492 1f3e 1244 7cbe 360d d1bd
000002c0: b2b8 77bd fa94 7abe c663 8b3e 2628 57be
000002d0: 2d47 60be 50ba d63d 9c5e 8a3d 558f 8abe
000002e0: e828 5bbe b809 423e d89a 0cbe fd07 e63d
000002f0: 7e40 963d 0789 e63d 6486 39bd aa59 30be
00000300: 0472 76be 58cb fabd c6bb 943e 82b9 20be
00000310: 22ca 4dbe cb7d af3d e7e7 05bd efae 4dbd
00000320: 0d1c 9b3e 6322 1bbb 2192 143d 2f6c a9bd
00000330: d953 813e 57c7 7f3e eed5 a13d 009a 1dbe
00000340: a046 8bbe b986 d6bd 158e 843e a14e e53d
00000350: ca72 1bbe a78d babd 0e02 3ebd aa43 993d
00000360: 1b87 203e d192 453e 21c8 fa3d c490 d6bd
00000370: 4951 6fbe 45db 493e b465 fb3d 6bf2 173d
00000380: 35f2 493e 7f3c 5fbe 8273 e93b 6e2f 533e
00000390: 6d61 5bbe b6f4 26be 32a8 273e d59f 03be
000003a0: 4fad 75bd 067d 19be 660b 583e 9dde 9b3e
000003b0: c64e 9cbd a5c4 30be ff5e 14be e390 3bbe
000003c0: 6c32 193e f49b 8fbe ece7 3fbe 6b5a 833e
000003d0: 8613 ef3c 1425 91bc 4f03 20be 96cb 82be
000003e0: fe82 94bd 5849 28be dee7 9bbe 233e 46be
000003f0: f0c3 1fbb 7188 1cbe 370a 72bd 4cc1 7abe
-0.2465947 -0.27042475 0.13356301 -0.21423817 -0.07220568 -0.3035932 -0.029782122 -0.26233375
0.1820647 0.03349467 0.05016235 -0.16916275 0.025882848 0.18013427 0.12822232 0.0378576
0.27116358 -0.18703431 0.026226575 0.001398501 -0.21985815 -0.19356331 -0.076685965 -0.011847976
0.080045864 0.20762663 0.057834968 0.11856872 -0.24104393 0.29599902 0.14743797 -0.12087929
-0.16045167 -0.16844432 -0.13307957 -0.29827753 -0.066744365 0.06098107 -0.0835117 0.020068405
-0.2055195 0.14569458 0.05510982 0.06463981 -0.24189816 0.010739758 -0.13441482 0.16146164
0.10825726 0.21972501 -0.047584474 -0.30902642 -0.17052832 -0.0973158 -0.25043255 0.1331966
0.09050614 0.016622793 0.12323722 0.13760346 -0.1444026 0.25269008 -0.14688872 -0.21524993
-0.03563782 -0.16559742 0.25838488 0.120957 -0.17881739 0.003593959 0.29332653 0.039415114
-0.23468392 -0.20256674 -0.17909706 -0.20885777 -0.08095864 -0.29818407 0.23265742 -0.22726022
0.036571775 0.2880702 0.049601402 0.09101016 0.14626734 -0.050477006 -0.111392014 0.16820641
0.20186125 0.0013515485 0.27863 -0.25197375 0.044644352 0.15579909 -0.26723897 -0.29463866
-0.036062226 -0.05143833 0.28514737 -0.25189745 0.119982414 -0.16405247 0.2532201 0.16306421
0.14328101 -0.17796203 0.15875813 -0.21776159 -0.0044420254 -0.24018326 -0.09626609 -0.12033211
-0.089270115 -0.14316054 -0.11886986 -0.17517027 -0.21636231 0.2577813 -0.25962242 -0.13794184
-0.008749753 0.22746658 -0.18841024 0.2133212 -0.29761216 0.22173044 0.029890891 -0.070400156
0.053457793 0.01938946 -0.12334417 0.21777894 -0.28256723 -0.0048676226 0.17003414 0.09783063
-0.29398543 -0.21723731 -0.084205195 -0.24497947 -0.16683975 0.22621484 0.28383014 -0.0213602
-0.20405564 -0.0048065577 0.19490582 0.044960365 -0.025941612 -0.26379308 0.16790062 -0.15383664
-0.05230546 -0.0015495679 0.2806337 -0.1685227 -0.111555204 0.007238659 -0.11363094 -0.23442586
0.29421416 0.083594725 -0.28135398 0.14354108 0.25000578 0.15007539 0.16377603 0.114144534
-0.28593224 -0.06842923 -0.02016415 -0.040244386 0.08847748 0.15583068 -0.24635342 -0.10207598
-0.060478874 -0.24470893 0.2722456 -0.21011409 -0.21902151 0.10484755 0.067563266 -0.2706248
-0.21402323 0.1894902 -0.13730943 0.112319924 0.0733652 0.11256605 -0.04529418 -0.17221704
-0.24066931 -0.12245816 0.2904951 -0.15695766 -0.20096639 0.08568915 -0.032691862 -0.050215658
0.3029484 -0.002367162 0.036272172 -0.082725875 0.25259283 0.24978386 0.07902132 -0.15390778
-0.2720232 -0.10474915 0.2588965 0.11196638 -0.15180507 -0.09109049 -0.04638868 0.07483609
0.15676539 0.19294287 0.12245203 -0.104768306 -0.23370852 0.19712551 0.12275258 0.037096422
0.19721301 -0.21800421 0.0071243653 0.20623562 -0.21423884 -0.16304287 0.16372755 -0.1285394
-0.059979733 -0.14989099 0.21098098 0.30443278 -0.07632212 -0.17262514 -0.14489363 -0.18316989
0.1496064 -0.2804867 -0.18740815 0.2565492 0.029184114 -0.017717876 -0.15626262 -0.2554595
-0.07251547 -0.16434228 -0.30450338 -0.19359641 -0.0024378262 -0.15286423 -0.059091773 -0.244878

delta_gnn.mlp.0.bias f4 [64]
00000000: efcc 37bc 9ed7 2abc 0000 0000 0000 0000
00000010: 4752 253c 0ec8 bbbb 3b23 75ba f40c 34bc
00000020: da41 59bc f9d9 dbbb 0000 0000 05f1 573c
00000030: fb58 0cbc 0000 0000 c538 263c e00d edbb
00000040: c3b8 523c e81e 28bc ec01 193c 0000 0000
00000050: 0000 0000 0000 0000 4ac7 533c 01d0 363c
00000060: 3d95 fdbb 0000 0000 0000 0000 e696 8e3c
00000070: b031 53bc 8cb8 f53b b850 253c 0000 0000
00000080: 3bcf 373c 0000 0000 d500 243c 0000 0000
00000090: 8a5e 0bbc 0000 0000 0000 0000 0000 0000
000000a0: aaf8 533c e817 3b3c 0000 0000 0000 0000
000000b0: 99b1 1fbc 0000 0000 237a 09bc 8c72 873b
000000c0: 0000 0000 0000 0000 bd4e 93bb 0000 0000
000000d0: 0000 0000 0000 0000 7ecf 3ebc 5af4 46bc
000000e0: 2d63 463c 921c 643b 0000 0000 d23a 3cbc
000000f0: dcf3 5bbc c69c 233c 0000 0000 dbd0 7a3c
-0.011218294 -0.010427384 0.0 0.0 0.010090417 -0.0057306355 -0.0009351258 -0.010989416
-0.013260329 -0.006709334 0.0 0.013180022 -0.0085661365 0.0 0.010145371 -0.00723432
0.012861433 -0.010261275 0.009338837 0.0 0.0 0.0 0.012925932 0.01115799
-0.007738738 0.0 0.0 0.017405938 -0.012890264 0.0074988063 0.010090046 0.0
0.011218841 0.0 0.010009964 0.0 -0.008506427 0.0 0.0 0.0
0.012937704 0.011419274 0.0 0.0 -0.009746932 0.0 -0.008390936 0.004133528
0.0 0.0 -0.0044954703 0.0 0.0 0.0 -0.01164615 -0.012143219
0.012108606 0.0034807068 0.0 -0.011488633 -0.01342484 0.009986108 0.0 0.015308584

delta_gnn.mlp.3.weight f4 [64, 64]
00000000: 5358 8d3c 0dff 0abe 0ca8 99be 4c4d 1abd
00000010: 2fc5 59be 479d 293e c015 b1bd 0b04 ba3c
00000020: 778e cc3d 31ac 373e 5b0d 53be cef9 3fbc
00000030: 0f9a 663d c3e5 e4bb bdde 87bd cb32 06be
00000040: ef01 81be 7765 8bbe 3330 02be f354 a7bd
00000050: d49b 963e 433f 863d 42de 4bbd 8e47 3cbe
00000060: 85a5 403e 9dfa 59be 7aec e23c 128f 60be
00000070: cea9 e23b f919 623e 2592 e3bd dd5c ccbd
00000080: 42a5 a8bd 5a00 523e e98b 253d 9887 35ba
00000090: 611b 933d 5706 06be 1118 953d 01b2 ac3d
000000a0: 821d 7bbe 42be 813e 9e59 59be 2fc1 d2bd
000000b0: 7f98 54be c51f 273d 9ec8 893d da58 b23d
000000c0: 8098 85be 07a8 2c3e 66bb 7f3e bc3a 713a
000000d0: f0a9 923e f7ec df3d 2bb3 91be 0834 f63c
000000e0: ba1a 84be f705 383e 75df 7a3d 9b28 61be
000000f0: f54f 93be 5e42 8b3c a2bf 643e de7e fd3d
00000100: c0ef d1bd 9dc2 8cbe 6c34 1c3d 366b 96be
00000110: 3e02 963d f6b1 8cbe e98d ec3c 79a7 9cbe
00000120: 5850 343e 94a9 9bbe 5670 5c3e 7b15 443e
00000130: 9c7f 9bbe 59d7 923e 71d1 00bc 23ff 4fbe
00000140: 9ebd a6bd 07b0 c6bd 7f82 873d e016 903e
00000150: 7c7d 2e3e be91 8bbe bbf6 5cbd 0b5c 08bc
00000160: 5e4b adbd b9d9 f13c 7d93 dc3d 78d5 113e
00000170: 7c68 a1bd acfd 653d fe5f 9b3e 5727 bd3d
00000180: 3049 b3bc c7ca 623e d416 7bbe 4970 b7bd
00000190: 1650 34be c49b 723c 97a6 0a3e 5659 1a3e
000001a0: 0a78 39be b893 9bbe 9e1f ef3d 558c 833d
000001b0: 4e99 69be 62ac 20be 05d4 ad3d 3edd 263e
000001c0: 4061 433e 5729 a93d 86e9 773e 4f7e 423e
000001d0: 0120 e2bd dcd6 04bd 7e06 8a3e 3e13 963e
000001e0: 3836 17be 7f05 87bd a51e 76be 7e64 90be
000001f0: 6a71 91bd af41 06be e78a 223e a2b2 7c3e
00000200: f6fc 803e 3f71 4a3e 2a9c 1e3d fc27 ad3d
00000210: 2af9 c1bd 65d9 6abe 361a 0bbe ff37 8e3e
00000220: 9c98 fcbd f119 723e 9b8c 753e cfa5 483e
00000230: 2fad 8c3e 4d63 8e3e ecf0 073e 44a6 ce3d
00000240: e8ef 693d 3308 5b3e bbc7 043e 3cd4 8b3c
00000250: b0bb b9bd 9e8d 873e 4998 083d 6cea 9e3e
00000260: bb2e 80bd 4697 69be 88ef 8e3d 2fc1 abbc
00000270: 2043 7c3e a961 8cbe 9a7a 653d 125f 103e
00000280: a7de 7cbe 087e 3ebe d653 463e edce 86be
00000290: dc64 483e 6e77 523e eef5 cf3d f00f 09be
000002a0: c185 893e 93c7 073e 9a81 573e 3b76 943d
000002b0: 45ad f83d 4dc5 81bd 9d7b 3dbe bae0 553d
000002c0: 782f 6b3e 6318 3ebe 9857 7abe de8c f1bd
000002d0: 0daa 383c d302 883e e211 6e3e 34ec aa3d
000002e0: 9a9f 5cbe cf1c 963e df69 8d3e 0520 95be
000002f0: 03d3 533e 4355 653d 4233 90be f396 e53c
00000300: bb3b f53d e089 31be 25e4 883a 2924 ee3b
00000310: 8de0 853c d1a2 43bd 1442 733e 1bad afbc
00000320: 1bf6 77bd 3498 89be 9cfe 2ebe b43b b33d
00000330: fd79 2b3e d531 7d3e aa2a 0abe bc46 0fbd
00000340: 7b26 023e 8fb2 d43d ca05 97bd ad5c 2b3e
00000350: 9303 4f3e 6944 4e3e ff96 01be bdc2 8abe
00000360: 76b4 63be ef8a 363d 46ce 68be 5448 2b3e
00000370: 39b5 bebd 4b74 03bb 9577 c53d d47f 283e
00000380: d20c 5c3e 412b 17be 01be 903e e8f9 da3d
00000390: ec2a 543d d363 9bbe b58f a0bd 3844 183e
000003a0: 337d bf3c 1232 2d3d 4b86 82bc ba00 863e
000003b0: b97f 69bd c4b1 91be dd1d 9d3d bbd0 e83c
000003c0: 32b5 7dbe cad0 463e f843 6b3e fbb6 3c3e
000003d0: 831d 23bc f9a2 3dbe 5280 4dbe c9b6 663d
000003e0: c772 6fbd cd15 f2bc 799a 6f3e 7532 473e
000003f0: 11de 24be b756 61be 13a3 98be 294b 623e
0.01725403 -0.13573857 -0.30011022 -0.037671372 -0.21266626 0.16563903 -0.086467266 0.022707006
0.099881105 0.1793678 -0.20610563 -0.011717273 0.056299265 -0.0069853975 -0.06634281 -0.13105313
-0.25196788 -0.2722585 -0.12713699 -0.081705 0.29415762 0.06555035 -0.04977251 -0.18386671
0.1881314 -0.21287008 0.027700651 -0.21929577 0.006917215 0.2208022 -0.11111859 -0.0997865
-0.082346454 0.20507947 0.04041663 -0.0006924807 0.071829565 -0.13088356 0.07279981 0.08432389
-0.24522975 0.25340468 -0.21225592 -0.10290753 -0.20761298 0.040801782 0.06727718 0.08708353
-0.2609291 0.16860972 0.2497383 0.00092021725 0.28645277 0.10933869 -0.28457007 0.030054107
-0.2580164 0.17971025 0.06124826 -0.21988146 -0.2877194 0.01699942 0.22338727 0.123777136
-0.10250807 -0.27492228 0.03813593 -0.2937867 0.073246464 -0.27479523 0.028876262 -0.30596521
0.17608774 -0.30402815 0.21527228 0.19148819 -0.30370796 0.28679922 -0.007862435 -0.2031217
-0.08141635 -0.09701543 0.06616687 0.28142452 0.17040056 -0.2725963 -0.053946238 -0.008322726
-0.08461641 0.029522764 0.10770319 0.14241588 -0.07881257 0.056150123 0.30346674 0.09236019
-0.021885484 0.22147666 -0.24520427 -0.089569636 -0.17608675 0.014807645 0.13540111 0.15073141
-0.18112198 -0.30386138 0.116759524 0.064232506 -0.22812387 -0.15690759 0.08487705 0.16295335
0.19080067 0.08259838 0.24210176 0.18993495 -0.110412605 -0.03243147 0.26958078 0.29311556
-0.14766777 -0.06592845 -0.24035127 -0.2820167 -0.0710171 -0.13110994 0.158733 0.24677518
0.25192994 0.19769762 0.03872315 0.08454892 -0.094713524 -0.22934492 -0.13584217 0.27777097
-0.123337954 0.23642708 0.23979418 0.19594501 0.2747588 0.27810135 0.13275498 0.100903064
0.057113558 0.21389847 0.12966816 0.017068975 -0.09069002 0.26475233 0.033348355 0.31038225
-0.06258913 -0.22811612 0.06979281 -0.02096614 0.24634981 -0.2741826 0.056025125 0.14098766
-0.2469431 -0.18602765 0.19367918 -0.26329747 0.19569725 0.20553371 0.10154329 -0.13384986
0.2685986 0.13259725 0.21045533 0.07249113 0.121424235 -0.0633646 -0.18504186 0.05221627
0.22967327 -0.1856399 -0.24447477 -0.117944464 0.011271012 0.26564655 0.23249009 0.083458334
-0.21545258 0.29318854 0.27619836 -0.2912599 0.20685963 0.055989515 -0.28164107 0.02802608
0.11974283 -0.17337751 0.0010443969 0.007267494 0.016342426 -0.047762696 0.23755676 -0.021444848
-0.06053744 -0.26873934 -0.17089313 0.08751622 0.16745754 0.2472604 -0.13492838 -0.034979567
0.12709992 0.1038562 -0.07374151 0.16734572 0.20216207 0.20143284 -0.12655257 -0.271017
-0.22236809 0.04456609 -0.22734937 0.1672681 -0.09311909 -0.002005833 0.09641949 0.16455013
0.21489266 -0.14762594 0.2826996 0.10692197 0.051798746 -0.30349597 -0.0783991 0.14869773
0.02337513 0.04228408 -0.015933177 0.2617243 -0.05700657 -0.28455937 0.076717116 0.028419843
-0.24776152 0.19415584 0.22975147 0.18429177 -0.009955767 -0.185192 -0.20068482 0.05632666
-0.05845907 -0.029551411 0.2339877 0.19452842 -0.16100337 -0.22005735 -0.29811916 0.22098984

delta_gnn.mlp.3.bias f4 [64]
00000000: 0000 0000 0000 0000 dcd5 3c3c dc81 503c
00000010: 0000 0000 f6dc 59bc 3012 8b3b 6a7c 733c
00000020: b45c 7fbc a6c2 253c 4c44 f93b a1bb 2e3c
00000030: ffe5 713c a55c bfb9 aa42 62bc 80c7 59bb
00000040: 3137 75bc f14d 2a3c 73f3 043c 0000 0000
00000050: e097 36bc 23ff a8bb a07c 4a3b 6e5d a8bb
00000060: abff 8abc 9990 063c 973a c7b9 768f c7bb
00000070: 8b85 383c fd69 833b 93d1 b9bb 8e90 f03b
00000080: 0000 0000 0000 0000 f61a 153c 6c59 023c
00000090: 34b5 49bc a6ee 0a3c cd72 703c 8bae 7a3c
000000a0: 9e24 6e3c 6c2c 053c 1f9d 00bc 3e34 353c
000000b0: 3a93 68bc 5fd3 8bbc d55d c93b 79c4 843c
000000c0: 3db3 38bc f4ca 5fbc 811b 113b c7dd a1ba
000000d0: 93b2 b0bb e0bd 6b3a 3d10 323c e87a 06bc
000000e0: 9ffd e6bb a5d8 1abc 4639 463c 0000 0000
000000f0: 0000 0000 2f2f 5cbc 6f92 6abc 77fe c1bb
0.0 0.0 0.011525597 0.012726273 0.0 -0.01329731 0.0042441115 0.014861206
-0.015586067 0.010117209 0.0076070186 0.010664851 0.014764308 -0.00036499384 -0.013809839 -0.0033230484
-0.014966772 0.010394559 0.008114683 0.0 -0.011144608 -0.005157368 0.0030897036 -0.005138091
-0.016967615 0.008213186 -0.0003799989 -0.0060901 0.011262308 0.0040104375 -0.005670735 0.007341451
0.0 0.0 0.009100666 0.00795589 -0.012311269 0.00847975 0.014675808 0.015300403
0.014535097 0.008128267 -0.007849961 0.011059819 -0.014195258 -0.017068563 0.006145219 0.016206967
-0.0112732025 -0.013659228 0.0022141638 -0.001234942 -0.0053923815 0.0008992832 0.010868129 -0.008208014
-0.007049277 -0.009451066 0.012098616 0.0 0.0 -0.013438984 -0.014317139 -0.005920227

delta_gnn.mlp.6.weight f4 [3, 64]
00000000: d40d 0fbe a009 d3bd 7948 3f3e 5ca6 9b3e
00000010: 2d08 153e e7b6 e93d d3a8 493e 52de c83d
00000020: a076 5a3d ca27 dcbe 34cb 4bbe a96e cb3e
00000030: 8013 3ebe 4ba6 9bbe d1d9 983e eb60 fd3d
00000040: fbe1 99be 4dfa b23e b062 9cbe c26d 843e
00000050: d558 543e 6b7a 2cbd 1bbc 9bbe 5908 853e
00000060: 84c9 d43e d74f 29bc 7023 c63e bb20 b7be
00000070: 6257 cd3e c7b6 0f3d 644a a33e adbc d5be
00000080: f0fd 333e bafc fc3d 1790 93be 4f3f 813e
00000090: 7a9f 9f3e 75ec ab3d 1959 bcbe 54ff cf3d
000000a0: 262d 04be a764 4d3b bd9a ecbd 9d58 a13e
000000b0: 1639 8d3a fd79 8d3d af77 933e c624 0d3e
000000c0: d6a2 a73e a56e 88bc 6ea2 b63e b228 b23e
000000d0: 4eb3 8d3e 8ff9 8e3d b724 8c3e bca1 893d
000000e0: 46af 403e c787 eb3d 5e21 a4be d5af b0be
000000f0: 4ae3 763e 22d2 18be a32a b13e 6a82 fe3d
00000100: 2e38 813e 2e65 b53e bcbc 193e 1887 ad3e
00000110: 2ce1 25be 63cb 83bd 5f83 133e 2149 90bd
00000120: a228 8d3e 58e9 41be ca00 8f3e 63b4 cebe
00000130: 8087 3fbe 485b 19be 2a1b 57bb f15a b23e
00000140: 1f0b 6cbe b38c 8b3e f049 9e3e 651c bb3e
00000150: f4bd c5be 86c2 b93e 5a86 ab3e ed0f 8b3d
00000160: e0d9 4d3e f8da aa3e 5b8d 023e e848 44be
00000170: 4789 743e f9f0 96bd 1629 d3be 0619 9bbe
00000180: 6f10 7fbd 1548 89be 26dd 983e b91d 073e
00000190: 6650 b4bd 1df1 4dbe 700d 8cbd 7729 bc3c
000001a0: 1484 a1bd 7b91 003e 6a14 eb3d 7365 143e
000001b0: 6bf3 233c 7514 ad3e 8db9 febd 5997 a4bd
000001c0: 6238 8abe 434a 0fbe 65a5 49be 26c4 ccbe
000001d0: 33d3 3abe 67ef a33e e841 dc3c b69c 203e
000001e0: c9cc 7d3d 27c3 52be 95d1 733c c445 843e
000001f0: b39d 843e 63a8 c63e db54 423e 35fc f9bc
00000200: 849d babd ad6b 1d3d 83e6 2ebe 7fe9 d4be
00000210: b42f aa3e c899 a13e 4c76 adbd bb9e 5dbe
00000220: ffc3 9a3e 6156 c8bd 9989 c0be 34e6 79be
00000230: fe66 57be 9be2 873d 5576 c03e 9daa 8cbe
00000240: 3481 bd3e 20ca c3be e4df 18be 9e09 cebe
00000250: 2292 c43e 3674 0a3d 9134 6bbc d7ec 5a3e
00000260: cc73 683e 6996 39be e8b1 95bd 6e5c 383d
00000270: 3626 dbbe 1667 bebe 4e07 c7bd 1800 82bd
00000280: 7000 77be eb13 83be 6dba 85be 35db 39be
00000290: e2b2 3d3e e181 d0be 6573 82be 332c 9bbe
000002a0: 709f 1bbe 6484 c2bd 6778 273e 9f85 8bbe
000002b0: b449 423e be0d 713e 2f4f 9f3d 3d19 cabe
000002c0: 43ad ca3e fcb1 983e cbae 28be 2a1c e1bd
000002d0: 17b3 6c3e 4381 2abd 9b11 aabe 297d 353e
000002e0: 41a7 9e3d 0b75 e13d e8c1 95be 4c11 b3bc
000002f0: ba8c cf3e 4b21 553e d03a a83e 832e dfbd
-0.13970119 -0.1030457 0.1867999 0.3040036 0.145539 0.11411839 0.19693308 0.09808029
0.053335786 -0.42999107 -0.19901735 0.39732864 -0.18562126 -0.3040031 0.2985368 0.12372001
-0.30055222 0.3495659 -0.30544043 0.2586499 0.20737012 -0.042108934 -0.3041695 0.2598293
0.41559994 -0.010333977 0.38698912 -0.3576716 0.4010573 0.03508642 0.31892693 -0.4174551
0.17577338 0.12352891 -0.2882087 0.25243613 0.31176358 0.0839471 -0.36786726 0.10156122
-0.12907848 0.003134051 -0.115529515 0.3151292 0.0010774459 0.06908033 0.2880225 0.13783559
0.3274142 -0.016654322 0.356708 0.34796673 0.2767586 0.06981193 0.2737176 0.067203015
0.18816862 0.11500507 -0.32056707 -0.3450915 0.24110141 -0.1492391 0.34602842 0.12427218
0.25238174 0.35428756 0.15013403 0.3389213 -0.16199178 -0.06435277 0.14405583 -0.07045198
0.27570063 -0.1893667 0.2793029 -0.40372 -0.18704033 -0.14976227 -0.0032822588 0.34835008
-0.23051117 0.27255782 0.30915785 0.365451 -0.38621485 0.36281222 0.3350094 0.06790147
0.20102644 0.33370185 0.12749235 -0.19168437 0.23880492 -0.07370181 -0.41242284 -0.3029253
-0.06227153 -0.26812807 0.29856223 0.13194932 -0.08804397 -0.20111509 -0.068385005 0.02296899
-0.0788652 0.12555496 0.11478503 0.14491825 0.010006766 0.3380467 -0.12437735 -0.0803668
-0.26996142 -0.13993172 -0.19692 -0.399934 -0.18244629 0.32018587 0.026886895 0.1568478
0.061962876 -0.20582257 0.014881511 0.25834477 0.25901565 0.38800344 0.18977682 -0.03051577
-0.09112075 0.038432766 -0.1708012 -0.41584393 0.3323952 0.31562638 -0.08469829 -0.21642582
0.30227658 -0.097821005 -0.3760498 -0.24404222 -0.21035382 0.066350184 0.3759028 -0.27473918
0.37012637 -0.38240147 -0.14929157 -0.40241712 0.3839274 0.033802234 -0.0143557945 0.2137941
0.22700423 -0.18123783 -0.073093235 0.045010023 -0.4280259 -0.37188023 -0.0971819 -0.06347674
-0.2412126 -0.25601134 -0.26118794 -0.18150027 0.1852527 -0.4072409 -0.25478664 -0.3030716
-0.1519754 -0.09497908 0.16354524 -0.27250382 0.18973428 0.23540398 0.07778775 -0.3947238
0.39585313 0.2982329 -0.16472928 -0.109917 0.23115192 -0.04162718 -0.33216557 0.17723526
0.07746745 0.11008652 -0.292495 -0.021858834 0.40537053 0.20813482 0.3285737 -0.10897543

delta_gnn.mlp.6.bias f4 [3]
00000000: b4d9 fdbb 1568 deba 251a 7dbc
-0.0077468995 -0.0016968275 -0.015448128

gate.0.weight f4 [64, 67]
00000000: 651e 283e 4fde 393e 1178 99bd c3d9 00be
00000010: 876d 5bbe 0338 f0bc e32a 893e 1954 0cbe
00000020: e513 8cbe 83a9 ff3d 38d8 43bd 9c47 b83d
00000030: 14bb 89ba 1183 12be 0ccd 933d 041b 5cbd
00000040: 8734 36be 56be 933e 5f2a 1bbe 8daf a03d
00000050: 4a01 cabd 43df 183e 6266 c9bd bc5b 803e
00000060: 5ed5 0fbe eb18 5e3d 7522 5fbe 1703 13be
00000070: 1682 4cbe 0466 fa3d c916 d23d 2a20 7f3e
00000080: 0980 4e3c 784c 87be 0553 a13d 5794 85bd
00000090: 227f c63d 5aee 8cbe 7786 6ebe fcfc 4bbe
000000a0: c1a9 993e fab0 8b3e 8011 8bbd c335 8f3e
000000b0: 6c12 0e3e df8e 933d b0a6 2cbd 7e64 6f3e
000000c0: 1e67 573e 44c2 363e 03f2 93be 1469 2bbe
000000d0: f247 50bd 3d93 b6bd 417e 0dbe 799e 733e
000000e0: 38bd 8c3e 4f7a c43c 0bff acbd 071a 5abd
000000f0: 68dc 563e e852 88be 6be9 033e 4a9a e53c
00000100: 2043 543e 1c9c 15be 3d97 753e 2fc7 7e3e
00000110: 92c8 69be bf6f 673e 6fe6 463e 7e6c 823e
00000120: 54fd 94be f287 e53d 479c 71be 4aef 92be
00000130: cc73 2cbe 5210 51be 2d87 ba3d c9e9 81be
00000140: 1192 913e 28b6 913e ab56 37bd 19e6 09be
00000150: eb36 40be 135b 53be bf48 e63c e586 97be
00000160: 6fa9 6cbe 1dc5 813e 2632 543e e89b 233e
00000170: d2ee 8f3e 0ae8 87be f0b0 3cbe 0d42 0abe
00000180: 3ba5 66be bcae 8fbe f6c8 64be 340c 0abe
00000190: f6ce 413e 99fe 00bd 9486 8e3d 4ab9 2b3e
000001a0: eb07 f6bc 8ac1 21bc 8e45 423e 3bd9 f7bc
000001b0: 0052 6f3e 2217 ee3d 2490 b93c 2d8b 12be
000001c0: 027f 86be d589 bfbd d7e8 633d 6f51 1c3e
000001d0: a66d 3bbc 8edd 4f3d bb11 9bbe 27d0 d7bc
000001e0: 6bf7 283e 8289 9ebe 60df 823e 9fbc 98be
000001f0: e3ec 99be 9e84 493e e46b 86bd 21e6 12be
00000200: 771e d5bd 74a6 383e 949a b8bd 9f36 94be
00000210: f771 61be 0a19 813e 7901 223e 0029 9a3e
00000220: b554 5dbe c79b 92be 2ee1 1bbc ab48 7abe
00000230: 56e9 88be eeb5 3fbe 615f e03b bb84 593e
00000240: cd17 703d 16be 71bd 1923 953e f502 01be
00000250: b9ce 8d3e 180b 6d3e 4e94 9abe 50cf 5abd
00000260: 0546 143e 6219 833e e076 15be e58a 293b
00000270: 24fa 95be 1938 2cbe f4a3 21be 988c 883e
00000280: 6783 0f3d d5f9 a2ba c139 47be 238f 8ebd
00000290: e97a 0c3e 0aa9 7fbe 629b e83d 3dca e83d
000002a0: 6408 0c3e d558 cebd 539f 92bd 19fd 6ebe
000002b0: 1f0c 86be f018 9dbd e103 65be 3ef5 88be
000002c0: 3a86 93be 437c d33d 061e 96be 904c 5a3e
000002d0: d3fd 22be cfbc 44be 0370 8cbd ef80 3b3c
000002e0: 9614 adbd 11cf 23be cfea 14be 24c5 113d
000002f0: e713 3fbe 12db 883e 6ad1 f43d 85fb f2bd
00000300: 9e0e d43d a8b0 e9bd d0b2 79bd 25bd febd
00000310: d77c 91be e1d1 493e 1d14 973e db69 56be
00000320: 8a8b 293d 1c53 573d f140 33be ca42 693e
00000330: 3ff9 f8bd 342e 023b 88bd 1fbe ea66 43be
00000340: 9089 28be e24e 72be d4ab 443e 0f9d 06be
00000350: 845c 89be 2727 19bc 5c08 87be 99bc a0bd
00000360: d77f 533c e6dc af3d fb85 41bd a9a8 8ebe
00000370: a4a9 213d aef4 a63d 54d1 c3bd 53ba 85be
00000380: 0270 1a3d 7948 a5bc c6ad 0b3e a883 383c
00000390: 986d 893e 3f43 8dbe 9056 3e3d b528 8e3d
000003a0: 7eb4 993e 868d 8f3d c431 863e 9afb 28be
000003b0: 8dcf 813e b247 473e 19d8 66be c0db 923e
000003c0: 1c5b 903e d4d3 9a3d 82b4 94be 26f3 983e
000003d0: 7266 1dbe f731 a23d e338 ed3d 33d7 02bd
000003e0: 3592 033e 0fc4 89be eece 06be 4857 81be
000003f0: 80a3 75be c970 6dbd 8082 debd 78db 4ebd
0.16417845 0.1815121 -0.07493604 -0.1258307 -0.214285 -0.029323583 0.26790532 -0.13703956
-0.27358928 0.12483504 -0.047813624 0.089980334 -0.0010508024 -0.1430781 0.07216844 -0.0537367
-0.17793475 0.28856152 -0.15152882 0.07845984 -0.09863527 0.14928918 -0.09833981 0.25069988
-0.14046237 0.054222982 -0.21790488 -0.14356647 -0.19971499 0.12226489 0.10258252 0.24914613
0.012603768 -0.2642553 0.07877163 -0.06522434 0.096922174 -0.27525598 -0.23293482 -0.19920725
0.30012324 0.2728346 -0.06790447 0.27970704 0.13874215 0.07204985 -0.042151153 0.23378178
0.2103543 0.17847544 -0.28895578 -0.16739303 -0.050849862 -0.08914802 -0.13817693 0.23790921
0.27488112 0.023984103 -0.08447083 -0.053247478 0.20982516 -0.26625752 0.1288201 0.028027672
0.20728731 -0.14610332 0.23983474 0.2488067 -0.22830418 0.22601222 0.19423841 0.25473398
-0.29099524 0.1120757 -0.23594771 -0.28698188 -0.16841048 -0.20416382 0.09107814 -0.25373676
0.28431752 0.28459287 -0.044760387 -0.13466682 -0.1877095 -0.20640211 0.02811086 -0.29595104
-0.23111509 0.25345698 0.20722255 0.15977442 0.28111893 -0.2654422 -0.18426871 -0.13501759
-0.22523968 -0.28063 -0.22342286 -0.13481218 0.18926606 -0.031492803 0.069592625 0.16769901
-0.030033072 -0.009872803 0.18971846 -0.03025495 0.23371124 0.11625506 0.02265174 -0.14310904
-0.26268774 -0.09352461 0.055641975 0.1526544 -0.011439716 0.0507484 -0.30286965 -0.026344372
0.16500632 -0.30964285 0.25561047 -0.29831406 -0.30063543 0.19679496 -0.06563547 -0.143456
-0.10406201 0.18032247 -0.090138584 -0.28947923 -0.2201613 0.25214416 0.15820874 0.30109406
-0.21614344 -0.28634474 -0.009514136 -0.24441783 -0.2674052 -0.18721744 0.0068473076 0.21242039
0.05861645 -0.05901917 0.2912834 -0.12598784 0.2769678 0.23148763 -0.30191272 -0.053420365
0.14479835 0.25605303 -0.14596128 0.002587014 -0.29292405 -0.16818275 -0.157852 0.26669765
0.035037424 -0.0012434075 -0.19455625 -0.06960895 0.13718762 -0.24966827 0.11357762 0.11366699
0.13675076 -0.10075537 -0.07159295 -0.23338737 -0.26181123 -0.07670772 -0.22364761 -0.26749605
-0.28813344 0.103264354 -0.2931978 0.21318269 -0.15917139 -0.1921265 -0.06857302 0.011444314
-0.08451192 -0.15996958 -0.14542697 0.0355884 -0.18659936 0.26729637 0.11954005 -0.1186438
0.103543505 -0.11410648 -0.060961545 -0.1243842 -0.28415558 0.19708969 0.29507533 -0.20938818
0.04139284 0.052569494 -0.17505242 0.22779384 -0.12156915 0.0019863965 -0.15599644 -0.19082227
-0.16458726 -0.23662904 0.19206172 -0.1314585 -0.26828396 -0.009347714 -0.26373565 -0.07848472
0.012908897 0.08587055 -0.047246914 -0.27863052 0.039468423 0.08152138 -0.095614105 -0.26118717
0.037704475 -0.02017616 0.13640508 0.011261858 0.26841426 -0.27590367 0.04646927 0.06941358
0.30020517 0.07009415 0.26209843 -0.16502228 0.2535366 0.19460943 -0.22543372 0.2868328
0.2819451 0.07559934 -0.29043967 0.29873008 -0.15371111 0.07919686 0.11583116 -0.03194351
0.12848742 -0.26907393 -0.13164875 -0.25261903 -0.23988152 -0.05796889 -0.10864735 -0.05050227

gate.0.bias f4 [64]
00000000: 14ce c4bb f7c8 e9bb 0000 0000 0000 0000
00000010: 1a97 ea3b 69e0 dcbb d978 57ba 8ab8 8e32
00000020: 5e65 e8bb 4f3a cea0 0000 0000 0000 0000
00000030: 644d c68b bca1 eabb 9f5e dd3b 7940 ea3b
00000040: 5730 e8bb 0000 0000 0000 0000 18d8 94a5
00000050: 0000 0000 4140 dc3b cc21 e93b 0bdc e3bb
00000060: 7dbb 4887 0000 0000 ff96 e53b 0000 0000
00000070: 0167 eb3b 0f1f a30c e4d5 ea3b 0000 0000
00000080: 1514 e63b 35cb e5bb dab8 9482 b25a e9bb
00000090: 0000 0000 df89 e9bb 0000 0000 19b4 9f3b
000000a0: aa43 e83b 3c7a dd3b 0000 0000 388c c0b6
000000b0: 68e9 bc3b 3f98 cd3b 4f7b ea3b 3d0a e7bb
000000c0: 87bb b7bb 378b e1bb 0000 0000 0000 0000
000000d0: b4f9 ecbb 0000 0000 0000 0000 0000 0000
000000e0: 0000 0000 d79b debb 07d3 eabb 6fbc 6bac
000000f0: 72af e1bb 22b2 e23b 4f55 eb3b 079c e0bb
-0.0060060117 -0.0071345526 0.0 0.0 0.007159126 -0.006740619 -0.0008219607 1.6614894e-08
-0.007092162 -3.4936343e-19 0.0 0.0 -7.638327e-32 -0.0071603935 0.0067556645 0.007148799
-0.0070858407 0.0 0.0 -2.5820338e-16 0.0 0.006721527 0.0071146246 -0.0069537214
-1.5101426e-34 0.0 0.0070065255 0.0 0.00718391 2.513282e-31 0.007166611 0.0
0.007021437 -0.0070127496 -2.1852745e-37 -0.0071214074 0.0 -0.007127031 0.0 0.0048737642
0.0070881443 0.0067589562 0.0 -5.7383695e-06 0.005765129 0.0062742527 0.007155813 -0.007050781
-0.005607072 -0.006883051 0.0 0.0 -0.0072319154 0.0 0.0 0.0
0.0 -0.00679348 -0.0071662697 -3.350011e-12 -0.00688737 0.0069182077 0.0071818004 -0.0068545374
